{"format": "layers-model", "generatedBy": null, "convertedBy": "TensorFlow.js Converter v1.7.2", "modelTopology": null, "weightsManifest": [{"paths": ["group1-shard1of61.bin", "group1-shard2of61.bin", "group1-shard3of61.bin", "group1-shard4of61.bin", "group1-shard5of61.bin", "group1-shard6of61.bin", "group1-shard7of61.bin", "group1-shard8of61.bin", "group1-shard9of61.bin", "group1-shard10of61.bin", "group1-shard11of61.bin", "group1-shard12of61.bin", "group1-shard13of61.bin", "group1-shard14of61.bin", "group1-shard15of61.bin", "group1-shard16of61.bin", "group1-shard17of61.bin", "group1-shard18of61.bin", "group1-shard19of61.bin", "group1-shard20of61.bin", "group1-shard21of61.bin", "group1-shard22of61.bin", "group1-shard23of61.bin", "group1-shard24of61.bin", "group1-shard25of61.bin", "group1-shard26of61.bin", "group1-shard27of61.bin", "group1-shard28of61.bin", "group1-shard29of61.bin", "group1-shard30of61.bin", "group1-shard31of61.bin", "group1-shard32of61.bin", "group1-shard33of61.bin", "group1-shard34of61.bin", "group1-shard35of61.bin", "group1-shard36of61.bin", "group1-shard37of61.bin", "group1-shard38of61.bin", "group1-shard39of61.bin", "group1-shard40of61.bin", "group1-shard41of61.bin", "group1-shard42of61.bin", "group1-shard43of61.bin", "group1-shard44of61.bin", "group1-shard45of61.bin", "group1-shard46of61.bin", "group1-shard47of61.bin", "group1-shard48of61.bin", "group1-shard49of61.bin", "group1-shard50of61.bin", "group1-shard51of61.bin", "group1-shard52of61.bin", "group1-shard53of61.bin", "group1-shard54of61.bin", "group1-shard55of61.bin", "group1-shard56of61.bin", "group1-shard57of61.bin", "group1-shard58of61.bin", "group1-shard59of61.bin", "group1-shard60of61.bin", "group1-shard61of61.bin"], "weights": [{"name": "conv1/kernel", "shape": [7, 7, 3, 64], "dtype": "float32"}, {"name": "conv1/bias", "shape": [64], "dtype": "float32"}, {"name": "bn_conv1/gamma", "shape": [64], "dtype": "float32"}, {"name": "bn_conv1/beta", "shape": [64], "dtype": "float32"}, {"name": "bn_conv1/moving_mean", "shape": [64], "dtype": "float32"}, {"name": "bn_conv1/moving_variance", "shape": [64], "dtype": "float32"}, {"name": "res2a_branch2a/kernel", "shape": [1, 1, 64, 64], "dtype": "float32"}, {"name": "res2a_branch2a/bias", "shape": [64], "dtype": "float32"}, {"name": "bn2a_branch2a/gamma", "shape": [64], "dtype": "float32"}, {"name": "bn2a_branch2a/beta", "shape": [64], "dtype": "float32"}, {"name": "bn2a_branch2a/moving_mean", "shape": [64], "dtype": "float32"}, {"name": "bn2a_branch2a/moving_variance", "shape": [64], "dtype": "float32"}, {"name": "res2a_branch2b/kernel", "shape": [3, 3, 64, 64], "dtype": "float32"}, {"name": "res2a_branch2b/bias", "shape": [64], "dtype": "float32"}, {"name": "bn2a_branch2b/gamma", "shape": [64], "dtype": "float32"}, {"name": "bn2a_branch2b/beta", "shape": [64], "dtype": "float32"}, {"name": "bn2a_branch2b/moving_mean", "shape": [64], "dtype": "float32"}, {"name": "bn2a_branch2b/moving_variance", "shape": [64], "dtype": "float32"}, {"name": "res2a_branch2c/kernel", "shape": [1, 1, 64, 256], "dtype": "float32"}, {"name": "res2a_branch2c/bias", "shape": [256], "dtype": "float32"}, {"name": "res2a_branch1/kernel", "shape": [1, 1, 64, 256], "dtype": "float32"}, {"name": "res2a_branch1/bias", "shape": [256], "dtype": "float32"}, {"name": "bn2a_branch2c/gamma", "shape": [256], "dtype": "float32"}, {"name": "bn2a_branch2c/beta", "shape": [256], "dtype": "float32"}, {"name": "bn2a_branch2c/moving_mean", "shape": [256], "dtype": "float32"}, {"name": "bn2a_branch2c/moving_variance", "shape": [256], "dtype": "float32"}, {"name": "bn2a_branch1/gamma", "shape": [256], "dtype": "float32"}, {"name": "bn2a_branch1/beta", "shape": [256], "dtype": "float32"}, {"name": "bn2a_branch1/moving_mean", "shape": [256], "dtype": "float32"}, {"name": "bn2a_branch1/moving_variance", "shape": [256], "dtype": "float32"}, {"name": "res2b_branch2a/kernel", "shape": [1, 1, 256, 64], "dtype": "float32"}, {"name": "res2b_branch2a/bias", "shape": [64], "dtype": "float32"}, {"name": "bn2b_branch2a/gamma", "shape": [64], "dtype": "float32"}, {"name": "bn2b_branch2a/beta", "shape": [64], "dtype": "float32"}, {"name": "bn2b_branch2a/moving_mean", "shape": [64], "dtype": "float32"}, {"name": "bn2b_branch2a/moving_variance", "shape": [64], "dtype": "float32"}, {"name": "res2b_branch2b/kernel", "shape": [3, 3, 64, 64], "dtype": "float32"}, {"name": "res2b_branch2b/bias", "shape": [64], "dtype": "float32"}, {"name": "bn2b_branch2b/gamma", "shape": [64], "dtype": "float32"}, {"name": "bn2b_branch2b/beta", "shape": [64], "dtype": "float32"}, {"name": "bn2b_branch2b/moving_mean", "shape": [64], "dtype": "float32"}, {"name": "bn2b_branch2b/moving_variance", "shape": [64], "dtype": "float32"}, {"name": "res2b_branch2c/kernel", "shape": [1, 1, 64, 256], "dtype": "float32"}, {"name": "res2b_branch2c/bias", "shape": [256], "dtype": "float32"}, {"name": "bn2b_branch2c/gamma", "shape": [256], "dtype": "float32"}, {"name": "bn2b_branch2c/beta", "shape": [256], "dtype": "float32"}, {"name": "bn2b_branch2c/moving_mean", "shape": [256], "dtype": "float32"}, {"name": "bn2b_branch2c/moving_variance", "shape": [256], "dtype": "float32"}, {"name": "res2c_branch2a/kernel", "shape": [1, 1, 256, 64], "dtype": "float32"}, {"name": "res2c_branch2a/bias", "shape": [64], "dtype": "float32"}, {"name": "bn2c_branch2a/gamma", "shape": [64], "dtype": "float32"}, {"name": "bn2c_branch2a/beta", "shape": [64], "dtype": "float32"}, {"name": "bn2c_branch2a/moving_mean", "shape": [64], "dtype": "float32"}, {"name": "bn2c_branch2a/moving_variance", "shape": [64], "dtype": "float32"}, {"name": "res2c_branch2b/kernel", "shape": [3, 3, 64, 64], "dtype": "float32"}, {"name": "res2c_branch2b/bias", "shape": [64], "dtype": "float32"}, {"name": "bn2c_branch2b/gamma", "shape": [64], "dtype": "float32"}, {"name": "bn2c_branch2b/beta", "shape": [64], "dtype": "float32"}, {"name": "bn2c_branch2b/moving_mean", "shape": [64], "dtype": "float32"}, {"name": "bn2c_branch2b/moving_variance", "shape": [64], "dtype": "float32"}, {"name": "res2c_branch2c/kernel", "shape": [1, 1, 64, 256], "dtype": "float32"}, {"name": "res2c_branch2c/bias", "shape": [256], "dtype": "float32"}, {"name": "bn2c_branch2c/gamma", "shape": [256], "dtype": "float32"}, {"name": "bn2c_branch2c/beta", "shape": [256], "dtype": "float32"}, {"name": "bn2c_branch2c/moving_mean", "shape": [256], "dtype": "float32"}, {"name": "bn2c_branch2c/moving_variance", "shape": [256], "dtype": "float32"}, {"name": "res3a_branch2a/kernel", "shape": [1, 1, 256, 128], "dtype": "float32"}, {"name": "res3a_branch2a/bias", "shape": [128], "dtype": "float32"}, {"name": "bn3a_branch2a/gamma", "shape": [128], "dtype": "float32"}, {"name": "bn3a_branch2a/beta", "shape": [128], "dtype": "float32"}, {"name": "bn3a_branch2a/moving_mean", "shape": [128], "dtype": "float32"}, {"name": "bn3a_branch2a/moving_variance", "shape": [128], "dtype": "float32"}, {"name": "res3a_branch2b/kernel", "shape": [3, 3, 128, 128], "dtype": "float32"}, {"name": "res3a_branch2b/bias", "shape": [128], "dtype": "float32"}, {"name": "bn3a_branch2b/gamma", "shape": [128], "dtype": "float32"}, {"name": "bn3a_branch2b/beta", "shape": [128], "dtype": "float32"}, {"name": "bn3a_branch2b/moving_mean", "shape": [128], "dtype": "float32"}, {"name": "bn3a_branch2b/moving_variance", "shape": [128], "dtype": "float32"}, {"name": "res3a_branch2c/kernel", "shape": [1, 1, 128, 512], "dtype": "float32"}, {"name": "res3a_branch2c/bias", "shape": [512], "dtype": "float32"}, {"name": "res3a_branch1/kernel", "shape": [1, 1, 256, 512], "dtype": "float32"}, {"name": "res3a_branch1/bias", "shape": [512], "dtype": "float32"}, {"name": "bn3a_branch2c/gamma", "shape": [512], "dtype": "float32"}, {"name": "bn3a_branch2c/beta", "shape": [512], "dtype": "float32"}, {"name": "bn3a_branch2c/moving_mean", "shape": [512], "dtype": "float32"}, {"name": "bn3a_branch2c/moving_variance", "shape": [512], "dtype": "float32"}, {"name": "bn3a_branch1/gamma", "shape": [512], "dtype": "float32"}, {"name": "bn3a_branch1/beta", "shape": [512], "dtype": "float32"}, {"name": "bn3a_branch1/moving_mean", "shape": [512], "dtype": "float32"}, {"name": "bn3a_branch1/moving_variance", "shape": [512], "dtype": "float32"}, {"name": "res3b_branch2a/kernel", "shape": [1, 1, 512, 128], "dtype": "float32"}, {"name": "res3b_branch2a/bias", "shape": [128], "dtype": "float32"}, {"name": "bn3b_branch2a/gamma", "shape": [128], "dtype": "float32"}, {"name": "bn3b_branch2a/beta", "shape": [128], "dtype": "float32"}, {"name": "bn3b_branch2a/moving_mean", "shape": [128], "dtype": "float32"}, {"name": "bn3b_branch2a/moving_variance", "shape": [128], "dtype": "float32"}, {"name": "res3b_branch2b/kernel", "shape": [3, 3, 128, 128], "dtype": "float32"}, {"name": "res3b_branch2b/bias", "shape": [128], "dtype": "float32"}, {"name": "bn3b_branch2b/gamma", "shape": [128], "dtype": "float32"}, {"name": "bn3b_branch2b/beta", "shape": [128], "dtype": "float32"}, {"name": "bn3b_branch2b/moving_mean", "shape": [128], "dtype": "float32"}, {"name": "bn3b_branch2b/moving_variance", "shape": [128], "dtype": "float32"}, {"name": "res3b_branch2c/kernel", "shape": [1, 1, 128, 512], "dtype": "float32"}, {"name": "res3b_branch2c/bias", "shape": [512], "dtype": "float32"}, {"name": "bn3b_branch2c/gamma", "shape": [512], "dtype": "float32"}, {"name": "bn3b_branch2c/beta", "shape": [512], "dtype": "float32"}, {"name": "bn3b_branch2c/moving_mean", "shape": [512], "dtype": "float32"}, {"name": "bn3b_branch2c/moving_variance", "shape": [512], "dtype": "float32"}, {"name": "res3c_branch2a/kernel", "shape": [1, 1, 512, 128], "dtype": "float32"}, {"name": "res3c_branch2a/bias", "shape": [128], "dtype": "float32"}, {"name": "bn3c_branch2a/gamma", "shape": [128], "dtype": "float32"}, {"name": "bn3c_branch2a/beta", "shape": [128], "dtype": "float32"}, {"name": "bn3c_branch2a/moving_mean", "shape": [128], "dtype": "float32"}, {"name": "bn3c_branch2a/moving_variance", "shape": [128], "dtype": "float32"}, {"name": "res3c_branch2b/kernel", "shape": [3, 3, 128, 128], "dtype": "float32"}, {"name": "res3c_branch2b/bias", "shape": [128], "dtype": "float32"}, {"name": "bn3c_branch2b/gamma", "shape": [128], "dtype": "float32"}, {"name": "bn3c_branch2b/beta", "shape": [128], "dtype": "float32"}, {"name": "bn3c_branch2b/moving_mean", "shape": [128], "dtype": "float32"}, {"name": "bn3c_branch2b/moving_variance", "shape": [128], "dtype": "float32"}, {"name": "res3c_branch2c/kernel", "shape": [1, 1, 128, 512], "dtype": "float32"}, {"name": "res3c_branch2c/bias", "shape": [512], "dtype": "float32"}, {"name": "bn3c_branch2c/gamma", "shape": [512], "dtype": "float32"}, {"name": "bn3c_branch2c/beta", "shape": [512], "dtype": "float32"}, {"name": "bn3c_branch2c/moving_mean", "shape": [512], "dtype": "float32"}, {"name": "bn3c_branch2c/moving_variance", "shape": [512], "dtype": "float32"}, {"name": "res3d_branch2a/kernel", "shape": [1, 1, 512, 128], "dtype": "float32"}, {"name": "res3d_branch2a/bias", "shape": [128], "dtype": "float32"}, {"name": "bn3d_branch2a/gamma", "shape": [128], "dtype": "float32"}, {"name": "bn3d_branch2a/beta", "shape": [128], "dtype": "float32"}, {"name": "bn3d_branch2a/moving_mean", "shape": [128], "dtype": "float32"}, {"name": "bn3d_branch2a/moving_variance", "shape": [128], "dtype": "float32"}, {"name": "res3d_branch2b/kernel", "shape": [3, 3, 128, 128], "dtype": "float32"}, {"name": "res3d_branch2b/bias", "shape": [128], "dtype": "float32"}, {"name": "bn3d_branch2b/gamma", "shape": [128], "dtype": "float32"}, {"name": "bn3d_branch2b/beta", "shape": [128], "dtype": "float32"}, {"name": "bn3d_branch2b/moving_mean", "shape": [128], "dtype": "float32"}, {"name": "bn3d_branch2b/moving_variance", "shape": [128], "dtype": "float32"}, {"name": "res3d_branch2c/kernel", "shape": [1, 1, 128, 512], "dtype": "float32"}, {"name": "res3d_branch2c/bias", "shape": [512], "dtype": "float32"}, {"name": "bn3d_branch2c/gamma", "shape": [512], "dtype": "float32"}, {"name": "bn3d_branch2c/beta", "shape": [512], "dtype": "float32"}, {"name": "bn3d_branch2c/moving_mean", "shape": [512], "dtype": "float32"}, {"name": "bn3d_branch2c/moving_variance", "shape": [512], "dtype": "float32"}, {"name": "res4a_branch2a/kernel", "shape": [1, 1, 512, 256], "dtype": "float32"}, {"name": "res4a_branch2a/bias", "shape": [256], "dtype": "float32"}, {"name": "bn4a_branch2a/gamma", "shape": [256], "dtype": "float32"}, {"name": "bn4a_branch2a/beta", "shape": [256], "dtype": "float32"}, {"name": "bn4a_branch2a/moving_mean", "shape": [256], "dtype": "float32"}, {"name": "bn4a_branch2a/moving_variance", "shape": [256], "dtype": "float32"}, {"name": "res4a_branch2b/kernel", "shape": [3, 3, 256, 256], "dtype": "float32"}, {"name": "res4a_branch2b/bias", "shape": [256], "dtype": "float32"}, {"name": "bn4a_branch2b/gamma", "shape": [256], "dtype": "float32"}, {"name": "bn4a_branch2b/beta", "shape": [256], "dtype": "float32"}, {"name": "bn4a_branch2b/moving_mean", "shape": [256], "dtype": "float32"}, {"name": "bn4a_branch2b/moving_variance", "shape": [256], "dtype": "float32"}, {"name": "res4a_branch2c/kernel", "shape": [1, 1, 256, 1024], "dtype": "float32"}, {"name": "res4a_branch2c/bias", "shape": [1024], "dtype": "float32"}, {"name": "res4a_branch1/kernel", "shape": [1, 1, 512, 1024], "dtype": "float32"}, {"name": "res4a_branch1/bias", "shape": [1024], "dtype": "float32"}, {"name": "bn4a_branch2c/gamma", "shape": [1024], "dtype": "float32"}, {"name": "bn4a_branch2c/beta", "shape": [1024], "dtype": "float32"}, {"name": "bn4a_branch2c/moving_mean", "shape": [1024], "dtype": "float32"}, {"name": "bn4a_branch2c/moving_variance", "shape": [1024], "dtype": "float32"}, {"name": "bn4a_branch1/gamma", "shape": [1024], "dtype": "float32"}, {"name": "bn4a_branch1/beta", "shape": [1024], "dtype": "float32"}, {"name": "bn4a_branch1/moving_mean", "shape": [1024], "dtype": "float32"}, {"name": "bn4a_branch1/moving_variance", "shape": [1024], "dtype": "float32"}, {"name": "res4b_branch2a/kernel", "shape": [1, 1, 1024, 256], "dtype": "float32"}, {"name": "res4b_branch2a/bias", "shape": [256], "dtype": "float32"}, {"name": "bn4b_branch2a/gamma", "shape": [256], "dtype": "float32"}, {"name": "bn4b_branch2a/beta", "shape": [256], "dtype": "float32"}, {"name": "bn4b_branch2a/moving_mean", "shape": [256], "dtype": "float32"}, {"name": "bn4b_branch2a/moving_variance", "shape": [256], "dtype": "float32"}, {"name": "res4b_branch2b/kernel", "shape": [3, 3, 256, 256], "dtype": "float32"}, {"name": "res4b_branch2b/bias", "shape": [256], "dtype": "float32"}, {"name": "bn4b_branch2b/gamma", "shape": [256], "dtype": "float32"}, {"name": "bn4b_branch2b/beta", "shape": [256], "dtype": "float32"}, {"name": "bn4b_branch2b/moving_mean", "shape": [256], "dtype": "float32"}, {"name": "bn4b_branch2b/moving_variance", "shape": [256], "dtype": "float32"}, {"name": "res4b_branch2c/kernel", "shape": [1, 1, 256, 1024], "dtype": "float32"}, {"name": "res4b_branch2c/bias", "shape": [1024], "dtype": "float32"}, {"name": "bn4b_branch2c/gamma", "shape": [1024], "dtype": "float32"}, {"name": "bn4b_branch2c/beta", "shape": [1024], "dtype": "float32"}, {"name": "bn4b_branch2c/moving_mean", "shape": [1024], "dtype": "float32"}, {"name": "bn4b_branch2c/moving_variance", "shape": [1024], "dtype": "float32"}, {"name": "res4c_branch2a/kernel", "shape": [1, 1, 1024, 256], "dtype": "float32"}, {"name": "res4c_branch2a/bias", "shape": [256], "dtype": "float32"}, {"name": "bn4c_branch2a/gamma", "shape": [256], "dtype": "float32"}, {"name": "bn4c_branch2a/beta", "shape": [256], "dtype": "float32"}, {"name": "bn4c_branch2a/moving_mean", "shape": [256], "dtype": "float32"}, {"name": "bn4c_branch2a/moving_variance", "shape": [256], "dtype": "float32"}, {"name": "res4c_branch2b/kernel", "shape": [3, 3, 256, 256], "dtype": "float32"}, {"name": "res4c_branch2b/bias", "shape": [256], "dtype": "float32"}, {"name": "bn4c_branch2b/gamma", "shape": [256], "dtype": "float32"}, {"name": "bn4c_branch2b/beta", "shape": [256], "dtype": "float32"}, {"name": "bn4c_branch2b/moving_mean", "shape": [256], "dtype": "float32"}, {"name": "bn4c_branch2b/moving_variance", "shape": [256], "dtype": "float32"}, {"name": "res4c_branch2c/kernel", "shape": [1, 1, 256, 1024], "dtype": "float32"}, {"name": "res4c_branch2c/bias", "shape": [1024], "dtype": "float32"}, {"name": "bn4c_branch2c/gamma", "shape": [1024], "dtype": "float32"}, {"name": "bn4c_branch2c/beta", "shape": [1024], "dtype": "float32"}, {"name": "bn4c_branch2c/moving_mean", "shape": [1024], "dtype": "float32"}, {"name": "bn4c_branch2c/moving_variance", "shape": [1024], "dtype": "float32"}, {"name": "res4d_branch2a/kernel", "shape": [1, 1, 1024, 256], "dtype": "float32"}, {"name": "res4d_branch2a/bias", "shape": [256], "dtype": "float32"}, {"name": "bn4d_branch2a/gamma", "shape": [256], "dtype": "float32"}, {"name": "bn4d_branch2a/beta", "shape": [256], "dtype": "float32"}, {"name": "bn4d_branch2a/moving_mean", "shape": [256], "dtype": "float32"}, {"name": "bn4d_branch2a/moving_variance", "shape": [256], "dtype": "float32"}, {"name": "res4d_branch2b/kernel", "shape": [3, 3, 256, 256], "dtype": "float32"}, {"name": "res4d_branch2b/bias", "shape": [256], "dtype": "float32"}, {"name": "bn4d_branch2b/gamma", "shape": [256], "dtype": "float32"}, {"name": "bn4d_branch2b/beta", "shape": [256], "dtype": "float32"}, {"name": "bn4d_branch2b/moving_mean", "shape": [256], "dtype": "float32"}, {"name": "bn4d_branch2b/moving_variance", "shape": [256], "dtype": "float32"}, {"name": "res4d_branch2c/kernel", "shape": [1, 1, 256, 1024], "dtype": "float32"}, {"name": "res4d_branch2c/bias", "shape": [1024], "dtype": "float32"}, {"name": "bn4d_branch2c/gamma", "shape": [1024], "dtype": "float32"}, {"name": "bn4d_branch2c/beta", "shape": [1024], "dtype": "float32"}, {"name": "bn4d_branch2c/moving_mean", "shape": [1024], "dtype": "float32"}, {"name": "bn4d_branch2c/moving_variance", "shape": [1024], "dtype": "float32"}, {"name": "res4e_branch2a/kernel", "shape": [1, 1, 1024, 256], "dtype": "float32"}, {"name": "res4e_branch2a/bias", "shape": [256], "dtype": "float32"}, {"name": "bn4e_branch2a/gamma", "shape": [256], "dtype": "float32"}, {"name": "bn4e_branch2a/beta", "shape": [256], "dtype": "float32"}, {"name": "bn4e_branch2a/moving_mean", "shape": [256], "dtype": "float32"}, {"name": "bn4e_branch2a/moving_variance", "shape": [256], "dtype": "float32"}, {"name": "res4e_branch2b/kernel", "shape": [3, 3, 256, 256], "dtype": "float32"}, {"name": "res4e_branch2b/bias", "shape": [256], "dtype": "float32"}, {"name": "bn4e_branch2b/gamma", "shape": [256], "dtype": "float32"}, {"name": "bn4e_branch2b/beta", "shape": [256], "dtype": "float32"}, {"name": "bn4e_branch2b/moving_mean", "shape": [256], "dtype": "float32"}, {"name": "bn4e_branch2b/moving_variance", "shape": [256], "dtype": "float32"}, {"name": "res4e_branch2c/kernel", "shape": [1, 1, 256, 1024], "dtype": "float32"}, {"name": "res4e_branch2c/bias", "shape": [1024], "dtype": "float32"}, {"name": "bn4e_branch2c/gamma", "shape": [1024], "dtype": "float32"}, {"name": "bn4e_branch2c/beta", "shape": [1024], "dtype": "float32"}, {"name": "bn4e_branch2c/moving_mean", "shape": [1024], "dtype": "float32"}, {"name": "bn4e_branch2c/moving_variance", "shape": [1024], "dtype": "float32"}, {"name": "res4f_branch2a/kernel", "shape": [1, 1, 1024, 256], "dtype": "float32"}, {"name": "res4f_branch2a/bias", "shape": [256], "dtype": "float32"}, {"name": "bn4f_branch2a/gamma", "shape": [256], "dtype": "float32"}, {"name": "bn4f_branch2a/beta", "shape": [256], "dtype": "float32"}, {"name": "bn4f_branch2a/moving_mean", "shape": [256], "dtype": "float32"}, {"name": "bn4f_branch2a/moving_variance", "shape": [256], "dtype": "float32"}, {"name": "res4f_branch2b/kernel", "shape": [3, 3, 256, 256], "dtype": "float32"}, {"name": "res4f_branch2b/bias", "shape": [256], "dtype": "float32"}, {"name": "bn4f_branch2b/gamma", "shape": [256], "dtype": "float32"}, {"name": "bn4f_branch2b/beta", "shape": [256], "dtype": "float32"}, {"name": "bn4f_branch2b/moving_mean", "shape": [256], "dtype": "float32"}, {"name": "bn4f_branch2b/moving_variance", "shape": [256], "dtype": "float32"}, {"name": "res4f_branch2c/kernel", "shape": [1, 1, 256, 1024], "dtype": "float32"}, {"name": "res4f_branch2c/bias", "shape": [1024], "dtype": "float32"}, {"name": "bn4f_branch2c/gamma", "shape": [1024], "dtype": "float32"}, {"name": "bn4f_branch2c/beta", "shape": [1024], "dtype": "float32"}, {"name": "bn4f_branch2c/moving_mean", "shape": [1024], "dtype": "float32"}, {"name": "bn4f_branch2c/moving_variance", "shape": [1024], "dtype": "float32"}, {"name": "res4g_branch2a/kernel", "shape": [1, 1, 1024, 256], "dtype": "float32"}, {"name": "res4g_branch2a/bias", "shape": [256], "dtype": "float32"}, {"name": "bn4g_branch2a/gamma", "shape": [256], "dtype": "float32"}, {"name": "bn4g_branch2a/beta", "shape": [256], "dtype": "float32"}, {"name": "bn4g_branch2a/moving_mean", "shape": [256], "dtype": "float32"}, {"name": "bn4g_branch2a/moving_variance", "shape": [256], "dtype": "float32"}, {"name": "res4g_branch2b/kernel", "shape": [3, 3, 256, 256], "dtype": "float32"}, {"name": "res4g_branch2b/bias", "shape": [256], "dtype": "float32"}, {"name": "bn4g_branch2b/gamma", "shape": [256], "dtype": "float32"}, {"name": "bn4g_branch2b/beta", "shape": [256], "dtype": "float32"}, {"name": "bn4g_branch2b/moving_mean", "shape": [256], "dtype": "float32"}, {"name": "bn4g_branch2b/moving_variance", "shape": [256], "dtype": "float32"}, {"name": "res4g_branch2c/kernel", "shape": [1, 1, 256, 1024], "dtype": "float32"}, {"name": "res4g_branch2c/bias", "shape": [1024], "dtype": "float32"}, {"name": "bn4g_branch2c/gamma", "shape": [1024], "dtype": "float32"}, {"name": "bn4g_branch2c/beta", "shape": [1024], "dtype": "float32"}, {"name": "bn4g_branch2c/moving_mean", "shape": [1024], "dtype": "float32"}, {"name": "bn4g_branch2c/moving_variance", "shape": [1024], "dtype": "float32"}, {"name": "res4h_branch2a/kernel", "shape": [1, 1, 1024, 256], "dtype": "float32"}, {"name": "res4h_branch2a/bias", "shape": [256], "dtype": "float32"}, {"name": "bn4h_branch2a/gamma", "shape": [256], "dtype": "float32"}, {"name": "bn4h_branch2a/beta", "shape": [256], "dtype": "float32"}, {"name": "bn4h_branch2a/moving_mean", "shape": [256], "dtype": "float32"}, {"name": "bn4h_branch2a/moving_variance", "shape": [256], "dtype": "float32"}, {"name": "res4h_branch2b/kernel", "shape": [3, 3, 256, 256], "dtype": "float32"}, {"name": "res4h_branch2b/bias", "shape": [256], "dtype": "float32"}, {"name": "bn4h_branch2b/gamma", "shape": [256], "dtype": "float32"}, {"name": "bn4h_branch2b/beta", "shape": [256], "dtype": "float32"}, {"name": "bn4h_branch2b/moving_mean", "shape": [256], "dtype": "float32"}, {"name": "bn4h_branch2b/moving_variance", "shape": [256], "dtype": "float32"}, {"name": "res4h_branch2c/kernel", "shape": [1, 1, 256, 1024], "dtype": "float32"}, {"name": "res4h_branch2c/bias", "shape": [1024], "dtype": "float32"}, {"name": "bn4h_branch2c/gamma", "shape": [1024], "dtype": "float32"}, {"name": "bn4h_branch2c/beta", "shape": [1024], "dtype": "float32"}, {"name": "bn4h_branch2c/moving_mean", "shape": [1024], "dtype": "float32"}, {"name": "bn4h_branch2c/moving_variance", "shape": [1024], "dtype": "float32"}, {"name": "res4i_branch2a/kernel", "shape": [1, 1, 1024, 256], "dtype": "float32"}, {"name": "res4i_branch2a/bias", "shape": [256], "dtype": "float32"}, {"name": "bn4i_branch2a/gamma", "shape": [256], "dtype": "float32"}, {"name": "bn4i_branch2a/beta", "shape": [256], "dtype": "float32"}, {"name": "bn4i_branch2a/moving_mean", "shape": [256], "dtype": "float32"}, {"name": "bn4i_branch2a/moving_variance", "shape": [256], "dtype": "float32"}, {"name": "res4i_branch2b/kernel", "shape": [3, 3, 256, 256], "dtype": "float32"}, {"name": "res4i_branch2b/bias", "shape": [256], "dtype": "float32"}, {"name": "bn4i_branch2b/gamma", "shape": [256], "dtype": "float32"}, {"name": "bn4i_branch2b/beta", "shape": [256], "dtype": "float32"}, {"name": "bn4i_branch2b/moving_mean", "shape": [256], "dtype": "float32"}, {"name": "bn4i_branch2b/moving_variance", "shape": [256], "dtype": "float32"}, {"name": "res4i_branch2c/kernel", "shape": [1, 1, 256, 1024], "dtype": "float32"}, {"name": "res4i_branch2c/bias", "shape": [1024], "dtype": "float32"}, {"name": "bn4i_branch2c/gamma", "shape": [1024], "dtype": "float32"}, {"name": "bn4i_branch2c/beta", "shape": [1024], "dtype": "float32"}, {"name": "bn4i_branch2c/moving_mean", "shape": [1024], "dtype": "float32"}, {"name": "bn4i_branch2c/moving_variance", "shape": [1024], "dtype": "float32"}, {"name": "res4j_branch2a/kernel", "shape": [1, 1, 1024, 256], "dtype": "float32"}, {"name": "res4j_branch2a/bias", "shape": [256], "dtype": "float32"}, {"name": "bn4j_branch2a/gamma", "shape": [256], "dtype": "float32"}, {"name": "bn4j_branch2a/beta", "shape": [256], "dtype": "float32"}, {"name": "bn4j_branch2a/moving_mean", "shape": [256], "dtype": "float32"}, {"name": "bn4j_branch2a/moving_variance", "shape": [256], "dtype": "float32"}, {"name": "res4j_branch2b/kernel", "shape": [3, 3, 256, 256], "dtype": "float32"}, {"name": "res4j_branch2b/bias", "shape": [256], "dtype": "float32"}, {"name": "bn4j_branch2b/gamma", "shape": [256], "dtype": "float32"}, {"name": "bn4j_branch2b/beta", "shape": [256], "dtype": "float32"}, {"name": "bn4j_branch2b/moving_mean", "shape": [256], "dtype": "float32"}, {"name": "bn4j_branch2b/moving_variance", "shape": [256], "dtype": "float32"}, {"name": "res4j_branch2c/kernel", "shape": [1, 1, 256, 1024], "dtype": "float32"}, {"name": "res4j_branch2c/bias", "shape": [1024], "dtype": "float32"}, {"name": "bn4j_branch2c/gamma", "shape": [1024], "dtype": "float32"}, {"name": "bn4j_branch2c/beta", "shape": [1024], "dtype": "float32"}, {"name": "bn4j_branch2c/moving_mean", "shape": [1024], "dtype": "float32"}, {"name": "bn4j_branch2c/moving_variance", "shape": [1024], "dtype": "float32"}, {"name": "res4k_branch2a/kernel", "shape": [1, 1, 1024, 256], "dtype": "float32"}, {"name": "res4k_branch2a/bias", "shape": [256], "dtype": "float32"}, {"name": "bn4k_branch2a/gamma", "shape": [256], "dtype": "float32"}, {"name": "bn4k_branch2a/beta", "shape": [256], "dtype": "float32"}, {"name": "bn4k_branch2a/moving_mean", "shape": [256], "dtype": "float32"}, {"name": "bn4k_branch2a/moving_variance", "shape": [256], "dtype": "float32"}, {"name": "res4k_branch2b/kernel", "shape": [3, 3, 256, 256], "dtype": "float32"}, {"name": "res4k_branch2b/bias", "shape": [256], "dtype": "float32"}, {"name": "bn4k_branch2b/gamma", "shape": [256], "dtype": "float32"}, {"name": "bn4k_branch2b/beta", "shape": [256], "dtype": "float32"}, {"name": "bn4k_branch2b/moving_mean", "shape": [256], "dtype": "float32"}, {"name": "bn4k_branch2b/moving_variance", "shape": [256], "dtype": "float32"}, {"name": "res4k_branch2c/kernel", "shape": [1, 1, 256, 1024], "dtype": "float32"}, {"name": "res4k_branch2c/bias", "shape": [1024], "dtype": "float32"}, {"name": "bn4k_branch2c/gamma", "shape": [1024], "dtype": "float32"}, {"name": "bn4k_branch2c/beta", "shape": [1024], "dtype": "float32"}, {"name": "bn4k_branch2c/moving_mean", "shape": [1024], "dtype": "float32"}, {"name": "bn4k_branch2c/moving_variance", "shape": [1024], "dtype": "float32"}, {"name": "res4l_branch2a/kernel", "shape": [1, 1, 1024, 256], "dtype": "float32"}, {"name": "res4l_branch2a/bias", "shape": [256], "dtype": "float32"}, {"name": "bn4l_branch2a/gamma", "shape": [256], "dtype": "float32"}, {"name": "bn4l_branch2a/beta", "shape": [256], "dtype": "float32"}, {"name": "bn4l_branch2a/moving_mean", "shape": [256], "dtype": "float32"}, {"name": "bn4l_branch2a/moving_variance", "shape": [256], "dtype": "float32"}, {"name": "res4l_branch2b/kernel", "shape": [3, 3, 256, 256], "dtype": "float32"}, {"name": "res4l_branch2b/bias", "shape": [256], "dtype": "float32"}, {"name": "bn4l_branch2b/gamma", "shape": [256], "dtype": "float32"}, {"name": "bn4l_branch2b/beta", "shape": [256], "dtype": "float32"}, {"name": "bn4l_branch2b/moving_mean", "shape": [256], "dtype": "float32"}, {"name": "bn4l_branch2b/moving_variance", "shape": [256], "dtype": "float32"}, {"name": "res4l_branch2c/kernel", "shape": [1, 1, 256, 1024], "dtype": "float32"}, {"name": "res4l_branch2c/bias", "shape": [1024], "dtype": "float32"}, {"name": "bn4l_branch2c/gamma", "shape": [1024], "dtype": "float32"}, {"name": "bn4l_branch2c/beta", "shape": [1024], "dtype": "float32"}, {"name": "bn4l_branch2c/moving_mean", "shape": [1024], "dtype": "float32"}, {"name": "bn4l_branch2c/moving_variance", "shape": [1024], "dtype": "float32"}, {"name": "res4m_branch2a/kernel", "shape": [1, 1, 1024, 256], "dtype": "float32"}, {"name": "res4m_branch2a/bias", "shape": [256], "dtype": "float32"}, {"name": "bn4m_branch2a/gamma", "shape": [256], "dtype": "float32"}, {"name": "bn4m_branch2a/beta", "shape": [256], "dtype": "float32"}, {"name": "bn4m_branch2a/moving_mean", "shape": [256], "dtype": "float32"}, {"name": "bn4m_branch2a/moving_variance", "shape": [256], "dtype": "float32"}, {"name": "res4m_branch2b/kernel", "shape": [3, 3, 256, 256], "dtype": "float32"}, {"name": "res4m_branch2b/bias", "shape": [256], "dtype": "float32"}, {"name": "bn4m_branch2b/gamma", "shape": [256], "dtype": "float32"}, {"name": "bn4m_branch2b/beta", "shape": [256], "dtype": "float32"}, {"name": "bn4m_branch2b/moving_mean", "shape": [256], "dtype": "float32"}, {"name": "bn4m_branch2b/moving_variance", "shape": [256], "dtype": "float32"}, {"name": "res4m_branch2c/kernel", "shape": [1, 1, 256, 1024], "dtype": "float32"}, {"name": "res4m_branch2c/bias", "shape": [1024], "dtype": "float32"}, {"name": "bn4m_branch2c/gamma", "shape": [1024], "dtype": "float32"}, {"name": "bn4m_branch2c/beta", "shape": [1024], "dtype": "float32"}, {"name": "bn4m_branch2c/moving_mean", "shape": [1024], "dtype": "float32"}, {"name": "bn4m_branch2c/moving_variance", "shape": [1024], "dtype": "float32"}, {"name": "res4n_branch2a/kernel", "shape": [1, 1, 1024, 256], "dtype": "float32"}, {"name": "res4n_branch2a/bias", "shape": [256], "dtype": "float32"}, {"name": "bn4n_branch2a/gamma", "shape": [256], "dtype": "float32"}, {"name": "bn4n_branch2a/beta", "shape": [256], "dtype": "float32"}, {"name": "bn4n_branch2a/moving_mean", "shape": [256], "dtype": "float32"}, {"name": "bn4n_branch2a/moving_variance", "shape": [256], "dtype": "float32"}, {"name": "res4n_branch2b/kernel", "shape": [3, 3, 256, 256], "dtype": "float32"}, {"name": "res4n_branch2b/bias", "shape": [256], "dtype": "float32"}, {"name": "bn4n_branch2b/gamma", "shape": [256], "dtype": "float32"}, {"name": "bn4n_branch2b/beta", "shape": [256], "dtype": "float32"}, {"name": "bn4n_branch2b/moving_mean", "shape": [256], "dtype": "float32"}, {"name": "bn4n_branch2b/moving_variance", "shape": [256], "dtype": "float32"}, {"name": "res4n_branch2c/kernel", "shape": [1, 1, 256, 1024], "dtype": "float32"}, {"name": "res4n_branch2c/bias", "shape": [1024], "dtype": "float32"}, {"name": "bn4n_branch2c/gamma", "shape": [1024], "dtype": "float32"}, {"name": "bn4n_branch2c/beta", "shape": [1024], "dtype": "float32"}, {"name": "bn4n_branch2c/moving_mean", "shape": [1024], "dtype": "float32"}, {"name": "bn4n_branch2c/moving_variance", "shape": [1024], "dtype": "float32"}, {"name": "res4o_branch2a/kernel", "shape": [1, 1, 1024, 256], "dtype": "float32"}, {"name": "res4o_branch2a/bias", "shape": [256], "dtype": "float32"}, {"name": "bn4o_branch2a/gamma", "shape": [256], "dtype": "float32"}, {"name": "bn4o_branch2a/beta", "shape": [256], "dtype": "float32"}, {"name": "bn4o_branch2a/moving_mean", "shape": [256], "dtype": "float32"}, {"name": "bn4o_branch2a/moving_variance", "shape": [256], "dtype": "float32"}, {"name": "res4o_branch2b/kernel", "shape": [3, 3, 256, 256], "dtype": "float32"}, {"name": "res4o_branch2b/bias", "shape": [256], "dtype": "float32"}, {"name": "bn4o_branch2b/gamma", "shape": [256], "dtype": "float32"}, {"name": "bn4o_branch2b/beta", "shape": [256], "dtype": "float32"}, {"name": "bn4o_branch2b/moving_mean", "shape": [256], "dtype": "float32"}, {"name": "bn4o_branch2b/moving_variance", "shape": [256], "dtype": "float32"}, {"name": "res4o_branch2c/kernel", "shape": [1, 1, 256, 1024], "dtype": "float32"}, {"name": "res4o_branch2c/bias", "shape": [1024], "dtype": "float32"}, {"name": "bn4o_branch2c/gamma", "shape": [1024], "dtype": "float32"}, {"name": "bn4o_branch2c/beta", "shape": [1024], "dtype": "float32"}, {"name": "bn4o_branch2c/moving_mean", "shape": [1024], "dtype": "float32"}, {"name": "bn4o_branch2c/moving_variance", "shape": [1024], "dtype": "float32"}, {"name": "res4p_branch2a/kernel", "shape": [1, 1, 1024, 256], "dtype": "float32"}, {"name": "res4p_branch2a/bias", "shape": [256], "dtype": "float32"}, {"name": "bn4p_branch2a/gamma", "shape": [256], "dtype": "float32"}, {"name": "bn4p_branch2a/beta", "shape": [256], "dtype": "float32"}, {"name": "bn4p_branch2a/moving_mean", "shape": [256], "dtype": "float32"}, {"name": "bn4p_branch2a/moving_variance", "shape": [256], "dtype": "float32"}, {"name": "res4p_branch2b/kernel", "shape": [3, 3, 256, 256], "dtype": "float32"}, {"name": "res4p_branch2b/bias", "shape": [256], "dtype": "float32"}, {"name": "bn4p_branch2b/gamma", "shape": [256], "dtype": "float32"}, {"name": "bn4p_branch2b/beta", "shape": [256], "dtype": "float32"}, {"name": "bn4p_branch2b/moving_mean", "shape": [256], "dtype": "float32"}, {"name": "bn4p_branch2b/moving_variance", "shape": [256], "dtype": "float32"}, {"name": "res4p_branch2c/kernel", "shape": [1, 1, 256, 1024], "dtype": "float32"}, {"name": "res4p_branch2c/bias", "shape": [1024], "dtype": "float32"}, {"name": "bn4p_branch2c/gamma", "shape": [1024], "dtype": "float32"}, {"name": "bn4p_branch2c/beta", "shape": [1024], "dtype": "float32"}, {"name": "bn4p_branch2c/moving_mean", "shape": [1024], "dtype": "float32"}, {"name": "bn4p_branch2c/moving_variance", "shape": [1024], "dtype": "float32"}, {"name": "res4q_branch2a/kernel", "shape": [1, 1, 1024, 256], "dtype": "float32"}, {"name": "res4q_branch2a/bias", "shape": [256], "dtype": "float32"}, {"name": "bn4q_branch2a/gamma", "shape": [256], "dtype": "float32"}, {"name": "bn4q_branch2a/beta", "shape": [256], "dtype": "float32"}, {"name": "bn4q_branch2a/moving_mean", "shape": [256], "dtype": "float32"}, {"name": "bn4q_branch2a/moving_variance", "shape": [256], "dtype": "float32"}, {"name": "res4q_branch2b/kernel", "shape": [3, 3, 256, 256], "dtype": "float32"}, {"name": "res4q_branch2b/bias", "shape": [256], "dtype": "float32"}, {"name": "bn4q_branch2b/gamma", "shape": [256], "dtype": "float32"}, {"name": "bn4q_branch2b/beta", "shape": [256], "dtype": "float32"}, {"name": "bn4q_branch2b/moving_mean", "shape": [256], "dtype": "float32"}, {"name": "bn4q_branch2b/moving_variance", "shape": [256], "dtype": "float32"}, {"name": "res4q_branch2c/kernel", "shape": [1, 1, 256, 1024], "dtype": "float32"}, {"name": "res4q_branch2c/bias", "shape": [1024], "dtype": "float32"}, {"name": "bn4q_branch2c/gamma", "shape": [1024], "dtype": "float32"}, {"name": "bn4q_branch2c/beta", "shape": [1024], "dtype": "float32"}, {"name": "bn4q_branch2c/moving_mean", "shape": [1024], "dtype": "float32"}, {"name": "bn4q_branch2c/moving_variance", "shape": [1024], "dtype": "float32"}, {"name": "res4r_branch2a/kernel", "shape": [1, 1, 1024, 256], "dtype": "float32"}, {"name": "res4r_branch2a/bias", "shape": [256], "dtype": "float32"}, {"name": "bn4r_branch2a/gamma", "shape": [256], "dtype": "float32"}, {"name": "bn4r_branch2a/beta", "shape": [256], "dtype": "float32"}, {"name": "bn4r_branch2a/moving_mean", "shape": [256], "dtype": "float32"}, {"name": "bn4r_branch2a/moving_variance", "shape": [256], "dtype": "float32"}, {"name": "res4r_branch2b/kernel", "shape": [3, 3, 256, 256], "dtype": "float32"}, {"name": "res4r_branch2b/bias", "shape": [256], "dtype": "float32"}, {"name": "bn4r_branch2b/gamma", "shape": [256], "dtype": "float32"}, {"name": "bn4r_branch2b/beta", "shape": [256], "dtype": "float32"}, {"name": "bn4r_branch2b/moving_mean", "shape": [256], "dtype": "float32"}, {"name": "bn4r_branch2b/moving_variance", "shape": [256], "dtype": "float32"}, {"name": "res4r_branch2c/kernel", "shape": [1, 1, 256, 1024], "dtype": "float32"}, {"name": "res4r_branch2c/bias", "shape": [1024], "dtype": "float32"}, {"name": "bn4r_branch2c/gamma", "shape": [1024], "dtype": "float32"}, {"name": "bn4r_branch2c/beta", "shape": [1024], "dtype": "float32"}, {"name": "bn4r_branch2c/moving_mean", "shape": [1024], "dtype": "float32"}, {"name": "bn4r_branch2c/moving_variance", "shape": [1024], "dtype": "float32"}, {"name": "res4s_branch2a/kernel", "shape": [1, 1, 1024, 256], "dtype": "float32"}, {"name": "res4s_branch2a/bias", "shape": [256], "dtype": "float32"}, {"name": "bn4s_branch2a/gamma", "shape": [256], "dtype": "float32"}, {"name": "bn4s_branch2a/beta", "shape": [256], "dtype": "float32"}, {"name": "bn4s_branch2a/moving_mean", "shape": [256], "dtype": "float32"}, {"name": "bn4s_branch2a/moving_variance", "shape": [256], "dtype": "float32"}, {"name": "res4s_branch2b/kernel", "shape": [3, 3, 256, 256], "dtype": "float32"}, {"name": "res4s_branch2b/bias", "shape": [256], "dtype": "float32"}, {"name": "bn4s_branch2b/gamma", "shape": [256], "dtype": "float32"}, {"name": "bn4s_branch2b/beta", "shape": [256], "dtype": "float32"}, {"name": "bn4s_branch2b/moving_mean", "shape": [256], "dtype": "float32"}, {"name": "bn4s_branch2b/moving_variance", "shape": [256], "dtype": "float32"}, {"name": "res4s_branch2c/kernel", "shape": [1, 1, 256, 1024], "dtype": "float32"}, {"name": "res4s_branch2c/bias", "shape": [1024], "dtype": "float32"}, {"name": "bn4s_branch2c/gamma", "shape": [1024], "dtype": "float32"}, {"name": "bn4s_branch2c/beta", "shape": [1024], "dtype": "float32"}, {"name": "bn4s_branch2c/moving_mean", "shape": [1024], "dtype": "float32"}, {"name": "bn4s_branch2c/moving_variance", "shape": [1024], "dtype": "float32"}, {"name": "res4t_branch2a/kernel", "shape": [1, 1, 1024, 256], "dtype": "float32"}, {"name": "res4t_branch2a/bias", "shape": [256], "dtype": "float32"}, {"name": "bn4t_branch2a/gamma", "shape": [256], "dtype": "float32"}, {"name": "bn4t_branch2a/beta", "shape": [256], "dtype": "float32"}, {"name": "bn4t_branch2a/moving_mean", "shape": [256], "dtype": "float32"}, {"name": "bn4t_branch2a/moving_variance", "shape": [256], "dtype": "float32"}, {"name": "res4t_branch2b/kernel", "shape": [3, 3, 256, 256], "dtype": "float32"}, {"name": "res4t_branch2b/bias", "shape": [256], "dtype": "float32"}, {"name": "bn4t_branch2b/gamma", "shape": [256], "dtype": "float32"}, {"name": "bn4t_branch2b/beta", "shape": [256], "dtype": "float32"}, {"name": "bn4t_branch2b/moving_mean", "shape": [256], "dtype": "float32"}, {"name": "bn4t_branch2b/moving_variance", "shape": [256], "dtype": "float32"}, {"name": "res4t_branch2c/kernel", "shape": [1, 1, 256, 1024], "dtype": "float32"}, {"name": "res4t_branch2c/bias", "shape": [1024], "dtype": "float32"}, {"name": "bn4t_branch2c/gamma", "shape": [1024], "dtype": "float32"}, {"name": "bn4t_branch2c/beta", "shape": [1024], "dtype": "float32"}, {"name": "bn4t_branch2c/moving_mean", "shape": [1024], "dtype": "float32"}, {"name": "bn4t_branch2c/moving_variance", "shape": [1024], "dtype": "float32"}, {"name": "res4u_branch2a/kernel", "shape": [1, 1, 1024, 256], "dtype": "float32"}, {"name": "res4u_branch2a/bias", "shape": [256], "dtype": "float32"}, {"name": "bn4u_branch2a/gamma", "shape": [256], "dtype": "float32"}, {"name": "bn4u_branch2a/beta", "shape": [256], "dtype": "float32"}, {"name": "bn4u_branch2a/moving_mean", "shape": [256], "dtype": "float32"}, {"name": "bn4u_branch2a/moving_variance", "shape": [256], "dtype": "float32"}, {"name": "res4u_branch2b/kernel", "shape": [3, 3, 256, 256], "dtype": "float32"}, {"name": "res4u_branch2b/bias", "shape": [256], "dtype": "float32"}, {"name": "bn4u_branch2b/gamma", "shape": [256], "dtype": "float32"}, {"name": "bn4u_branch2b/beta", "shape": [256], "dtype": "float32"}, {"name": "bn4u_branch2b/moving_mean", "shape": [256], "dtype": "float32"}, {"name": "bn4u_branch2b/moving_variance", "shape": [256], "dtype": "float32"}, {"name": "res4u_branch2c/kernel", "shape": [1, 1, 256, 1024], "dtype": "float32"}, {"name": "res4u_branch2c/bias", "shape": [1024], "dtype": "float32"}, {"name": "bn4u_branch2c/gamma", "shape": [1024], "dtype": "float32"}, {"name": "bn4u_branch2c/beta", "shape": [1024], "dtype": "float32"}, {"name": "bn4u_branch2c/moving_mean", "shape": [1024], "dtype": "float32"}, {"name": "bn4u_branch2c/moving_variance", "shape": [1024], "dtype": "float32"}, {"name": "res4v_branch2a/kernel", "shape": [1, 1, 1024, 256], "dtype": "float32"}, {"name": "res4v_branch2a/bias", "shape": [256], "dtype": "float32"}, {"name": "bn4v_branch2a/gamma", "shape": [256], "dtype": "float32"}, {"name": "bn4v_branch2a/beta", "shape": [256], "dtype": "float32"}, {"name": "bn4v_branch2a/moving_mean", "shape": [256], "dtype": "float32"}, {"name": "bn4v_branch2a/moving_variance", "shape": [256], "dtype": "float32"}, {"name": "res4v_branch2b/kernel", "shape": [3, 3, 256, 256], "dtype": "float32"}, {"name": "res4v_branch2b/bias", "shape": [256], "dtype": "float32"}, {"name": "bn4v_branch2b/gamma", "shape": [256], "dtype": "float32"}, {"name": "bn4v_branch2b/beta", "shape": [256], "dtype": "float32"}, {"name": "bn4v_branch2b/moving_mean", "shape": [256], "dtype": "float32"}, {"name": "bn4v_branch2b/moving_variance", "shape": [256], "dtype": "float32"}, {"name": "res4v_branch2c/kernel", "shape": [1, 1, 256, 1024], "dtype": "float32"}, {"name": "res4v_branch2c/bias", "shape": [1024], "dtype": "float32"}, {"name": "bn4v_branch2c/gamma", "shape": [1024], "dtype": "float32"}, {"name": "bn4v_branch2c/beta", "shape": [1024], "dtype": "float32"}, {"name": "bn4v_branch2c/moving_mean", "shape": [1024], "dtype": "float32"}, {"name": "bn4v_branch2c/moving_variance", "shape": [1024], "dtype": "float32"}, {"name": "res4w_branch2a/kernel", "shape": [1, 1, 1024, 256], "dtype": "float32"}, {"name": "res4w_branch2a/bias", "shape": [256], "dtype": "float32"}, {"name": "bn4w_branch2a/gamma", "shape": [256], "dtype": "float32"}, {"name": "bn4w_branch2a/beta", "shape": [256], "dtype": "float32"}, {"name": "bn4w_branch2a/moving_mean", "shape": [256], "dtype": "float32"}, {"name": "bn4w_branch2a/moving_variance", "shape": [256], "dtype": "float32"}, {"name": "res4w_branch2b/kernel", "shape": [3, 3, 256, 256], "dtype": "float32"}, {"name": "res4w_branch2b/bias", "shape": [256], "dtype": "float32"}, {"name": "bn4w_branch2b/gamma", "shape": [256], "dtype": "float32"}, {"name": "bn4w_branch2b/beta", "shape": [256], "dtype": "float32"}, {"name": "bn4w_branch2b/moving_mean", "shape": [256], "dtype": "float32"}, {"name": "bn4w_branch2b/moving_variance", "shape": [256], "dtype": "float32"}, {"name": "res4w_branch2c/kernel", "shape": [1, 1, 256, 1024], "dtype": "float32"}, {"name": "res4w_branch2c/bias", "shape": [1024], "dtype": "float32"}, {"name": "bn4w_branch2c/gamma", "shape": [1024], "dtype": "float32"}, {"name": "bn4w_branch2c/beta", "shape": [1024], "dtype": "float32"}, {"name": "bn4w_branch2c/moving_mean", "shape": [1024], "dtype": "float32"}, {"name": "bn4w_branch2c/moving_variance", "shape": [1024], "dtype": "float32"}, {"name": "res5a_branch2a/kernel", "shape": [1, 1, 1024, 512], "dtype": "float32"}, {"name": "res5a_branch2a/bias", "shape": [512], "dtype": "float32"}, {"name": "bn5a_branch2a/gamma", "shape": [512], "dtype": "float32"}, {"name": "bn5a_branch2a/beta", "shape": [512], "dtype": "float32"}, {"name": "bn5a_branch2a/moving_mean", "shape": [512], "dtype": "float32"}, {"name": "bn5a_branch2a/moving_variance", "shape": [512], "dtype": "float32"}, {"name": "res5a_branch2b/kernel", "shape": [3, 3, 512, 512], "dtype": "float32"}, {"name": "res5a_branch2b/bias", "shape": [512], "dtype": "float32"}, {"name": "bn5a_branch2b/gamma", "shape": [512], "dtype": "float32"}, {"name": "bn5a_branch2b/beta", "shape": [512], "dtype": "float32"}, {"name": "bn5a_branch2b/moving_mean", "shape": [512], "dtype": "float32"}, {"name": "bn5a_branch2b/moving_variance", "shape": [512], "dtype": "float32"}, {"name": "res5a_branch2c/kernel", "shape": [1, 1, 512, 2048], "dtype": "float32"}, {"name": "res5a_branch2c/bias", "shape": [2048], "dtype": "float32"}, {"name": "res5a_branch1/kernel", "shape": [1, 1, 1024, 2048], "dtype": "float32"}, {"name": "res5a_branch1/bias", "shape": [2048], "dtype": "float32"}, {"name": "bn5a_branch2c/gamma", "shape": [2048], "dtype": "float32"}, {"name": "bn5a_branch2c/beta", "shape": [2048], "dtype": "float32"}, {"name": "bn5a_branch2c/moving_mean", "shape": [2048], "dtype": "float32"}, {"name": "bn5a_branch2c/moving_variance", "shape": [2048], "dtype": "float32"}, {"name": "bn5a_branch1/gamma", "shape": [2048], "dtype": "float32"}, {"name": "bn5a_branch1/beta", "shape": [2048], "dtype": "float32"}, {"name": "bn5a_branch1/moving_mean", "shape": [2048], "dtype": "float32"}, {"name": "bn5a_branch1/moving_variance", "shape": [2048], "dtype": "float32"}, {"name": "res5b_branch2a/kernel", "shape": [1, 1, 2048, 512], "dtype": "float32"}, {"name": "res5b_branch2a/bias", "shape": [512], "dtype": "float32"}, {"name": "bn5b_branch2a/gamma", "shape": [512], "dtype": "float32"}, {"name": "bn5b_branch2a/beta", "shape": [512], "dtype": "float32"}, {"name": "bn5b_branch2a/moving_mean", "shape": [512], "dtype": "float32"}, {"name": "bn5b_branch2a/moving_variance", "shape": [512], "dtype": "float32"}, {"name": "res5b_branch2b/kernel", "shape": [3, 3, 512, 512], "dtype": "float32"}, {"name": "res5b_branch2b/bias", "shape": [512], "dtype": "float32"}, {"name": "bn5b_branch2b/gamma", "shape": [512], "dtype": "float32"}, {"name": "bn5b_branch2b/beta", "shape": [512], "dtype": "float32"}, {"name": "bn5b_branch2b/moving_mean", "shape": [512], "dtype": "float32"}, {"name": "bn5b_branch2b/moving_variance", "shape": [512], "dtype": "float32"}, {"name": "res5b_branch2c/kernel", "shape": [1, 1, 512, 2048], "dtype": "float32"}, {"name": "res5b_branch2c/bias", "shape": [2048], "dtype": "float32"}, {"name": "bn5b_branch2c/gamma", "shape": [2048], "dtype": "float32"}, {"name": "bn5b_branch2c/beta", "shape": [2048], "dtype": "float32"}, {"name": "bn5b_branch2c/moving_mean", "shape": [2048], "dtype": "float32"}, {"name": "bn5b_branch2c/moving_variance", "shape": [2048], "dtype": "float32"}, {"name": "res5c_branch2a/kernel", "shape": [1, 1, 2048, 512], "dtype": "float32"}, {"name": "res5c_branch2a/bias", "shape": [512], "dtype": "float32"}, {"name": "bn5c_branch2a/gamma", "shape": [512], "dtype": "float32"}, {"name": "bn5c_branch2a/beta", "shape": [512], "dtype": "float32"}, {"name": "bn5c_branch2a/moving_mean", "shape": [512], "dtype": "float32"}, {"name": "bn5c_branch2a/moving_variance", "shape": [512], "dtype": "float32"}, {"name": "res5c_branch2b/kernel", "shape": [3, 3, 512, 512], "dtype": "float32"}, {"name": "res5c_branch2b/bias", "shape": [512], "dtype": "float32"}, {"name": "bn5c_branch2b/gamma", "shape": [512], "dtype": "float32"}, {"name": "bn5c_branch2b/beta", "shape": [512], "dtype": "float32"}, {"name": "bn5c_branch2b/moving_mean", "shape": [512], "dtype": "float32"}, {"name": "bn5c_branch2b/moving_variance", "shape": [512], "dtype": "float32"}, {"name": "res5c_branch2c/kernel", "shape": [1, 1, 512, 2048], "dtype": "float32"}, {"name": "res5c_branch2c/bias", "shape": [2048], "dtype": "float32"}, {"name": "bn5c_branch2c/gamma", "shape": [2048], "dtype": "float32"}, {"name": "bn5c_branch2c/beta", "shape": [2048], "dtype": "float32"}, {"name": "bn5c_branch2c/moving_mean", "shape": [2048], "dtype": "float32"}, {"name": "bn5c_branch2c/moving_variance", "shape": [2048], "dtype": "float32"}, {"name": "fpn_c5p5/kernel", "shape": [1, 1, 2048, 256], "dtype": "float32"}, {"name": "fpn_c5p5/bias", "shape": [256], "dtype": "float32"}, {"name": "fpn_c4p4/kernel", "shape": [1, 1, 1024, 256], "dtype": "float32"}, {"name": "fpn_c4p4/bias", "shape": [256], "dtype": "float32"}, {"name": "fpn_c3p3/kernel", "shape": [1, 1, 512, 256], "dtype": "float32"}, {"name": "fpn_c3p3/bias", "shape": [256], "dtype": "float32"}, {"name": "fpn_c2p2/kernel", "shape": [1, 1, 256, 256], "dtype": "float32"}, {"name": "fpn_c2p2/bias", "shape": [256], "dtype": "float32"}, {"name": "fpn_p5/kernel", "shape": [3, 3, 256, 256], "dtype": "float32"}, {"name": "fpn_p5/bias", "shape": [256], "dtype": "float32"}, {"name": "fpn_p2/kernel", "shape": [3, 3, 256, 256], "dtype": "float32"}, {"name": "fpn_p2/bias", "shape": [256], "dtype": "float32"}, {"name": "fpn_p3/kernel", "shape": [3, 3, 256, 256], "dtype": "float32"}, {"name": "fpn_p3/bias", "shape": [256], "dtype": "float32"}, {"name": "fpn_p4/kernel", "shape": [3, 3, 256, 256], "dtype": "float32"}, {"name": "fpn_p4/bias", "shape": [256], "dtype": "float32"}, {"name": "rpn_conv_shared/kernel", "shape": [3, 3, 256, 512], "dtype": "float32"}, {"name": "rpn_conv_shared/bias", "shape": [512], "dtype": "float32"}, {"name": "rpn_class_raw/kernel", "shape": [1, 1, 512, 6], "dtype": "float32"}, {"name": "rpn_class_raw/bias", "shape": [6], "dtype": "float32"}, {"name": "rpn_bbox_pred/kernel", "shape": [1, 1, 512, 12], "dtype": "float32"}, {"name": "rpn_bbox_pred/bias", "shape": [12], "dtype": "float32"}, {"name": "mrcnn_mask_conv1/kernel", "shape": [3, 3, 256, 256], "dtype": "float32"}, {"name": "mrcnn_mask_conv1/bias", "shape": [256], "dtype": "float32"}, {"name": "mrcnn_mask_bn1/gamma", "shape": [256], "dtype": "float32"}, {"name": "mrcnn_mask_bn1/beta", "shape": [256], "dtype": "float32"}, {"name": "mrcnn_mask_bn1/moving_mean", "shape": [256], "dtype": "float32"}, {"name": "mrcnn_mask_bn1/moving_variance", "shape": [256], "dtype": "float32"}, {"name": "mrcnn_mask_conv2/kernel", "shape": [3, 3, 256, 256], "dtype": "float32"}, {"name": "mrcnn_mask_conv2/bias", "shape": [256], "dtype": "float32"}, {"name": "mrcnn_mask_bn2/gamma", "shape": [256], "dtype": "float32"}, {"name": "mrcnn_mask_bn2/beta", "shape": [256], "dtype": "float32"}, {"name": "mrcnn_mask_bn2/moving_mean", "shape": [256], "dtype": "float32"}, {"name": "mrcnn_mask_bn2/moving_variance", "shape": [256], "dtype": "float32"}, {"name": "mrcnn_class_conv1/kernel", "shape": [7, 7, 256, 1024], "dtype": "float32"}, {"name": "mrcnn_class_conv1/bias", "shape": [1024], "dtype": "float32"}, {"name": "mrcnn_class_bn1/gamma", "shape": [1024], "dtype": "float32"}, {"name": "mrcnn_class_bn1/beta", "shape": [1024], "dtype": "float32"}, {"name": "mrcnn_class_bn1/moving_mean", "shape": [1024], "dtype": "float32"}, {"name": "mrcnn_class_bn1/moving_variance", "shape": [1024], "dtype": "float32"}, {"name": "mrcnn_mask_conv3/kernel", "shape": [3, 3, 256, 256], "dtype": "float32"}, {"name": "mrcnn_mask_conv3/bias", "shape": [256], "dtype": "float32"}, {"name": "mrcnn_mask_bn3/gamma", "shape": [256], "dtype": "float32"}, {"name": "mrcnn_mask_bn3/beta", "shape": [256], "dtype": "float32"}, {"name": "mrcnn_mask_bn3/moving_mean", "shape": [256], "dtype": "float32"}, {"name": "mrcnn_mask_bn3/moving_variance", "shape": [256], "dtype": "float32"}, {"name": "mrcnn_class_conv2/kernel", "shape": [1, 1, 1024, 1024], "dtype": "float32"}, {"name": "mrcnn_class_conv2/bias", "shape": [1024], "dtype": "float32"}, {"name": "mrcnn_class_bn2/gamma", "shape": [1024], "dtype": "float32"}, {"name": "mrcnn_class_bn2/beta", "shape": [1024], "dtype": "float32"}, {"name": "mrcnn_class_bn2/moving_mean", "shape": [1024], "dtype": "float32"}, {"name": "mrcnn_class_bn2/moving_variance", "shape": [1024], "dtype": "float32"}, {"name": "mrcnn_mask_conv4/kernel", "shape": [3, 3, 256, 256], "dtype": "float32"}, {"name": "mrcnn_mask_conv4/bias", "shape": [256], "dtype": "float32"}, {"name": "mrcnn_mask_bn4/gamma", "shape": [256], "dtype": "float32"}, {"name": "mrcnn_mask_bn4/beta", "shape": [256], "dtype": "float32"}, {"name": "mrcnn_mask_bn4/moving_mean", "shape": [256], "dtype": "float32"}, {"name": "mrcnn_mask_bn4/moving_variance", "shape": [256], "dtype": "float32"}, {"name": "mrcnn_bbox_fc/kernel", "shape": [1024, 8], "dtype": "float32"}, {"name": "mrcnn_bbox_fc/bias", "shape": [8], "dtype": "float32"}, {"name": "mrcnn_mask_deconv/kernel", "shape": [2, 2, 256, 256], "dtype": "float32"}, {"name": "mrcnn_mask_deconv/bias", "shape": [256], "dtype": "float32"}, {"name": "mrcnn_class_logits/kernel", "shape": [1024, 2], "dtype": "float32"}, {"name": "mrcnn_class_logits/bias", "shape": [2], "dtype": "float32"}, {"name": "mrcnn_mask/kernel", "shape": [1, 1, 256, 2], "dtype": "float32"}, {"name": "mrcnn_mask/bias", "shape": [2], "dtype": "float32"}]}]}